weights/best_indoor.pth (torch_old, 34944 bytes, 9 tensors)

conv1.weight f4 [16, 3, 5, 5]
-0.081985846 -0.06216018 0.03781108 -0.052524302 0.016063534 -0.060465835 -0.062291794 0.07180179
0.121491484 0.085408345 -0.1261668 0.11710949 -0.0063149882 -0.08467519 -0.0082652345 -0.057759468
-0.10550916 0.14753927 0.08408518 0.008391108 -0.12948753 -0.14175256 -0.044493303 -0.19463317
-0.15588716 -0.13496146 -0.088888064 0.17961371 0.07388809 0.040714405 -0.038636465 -0.019227136
0.20190407 0.064962015 0.18071601 0.0276798 0.024089463 0.23099926 0.109967016 0.12695572
0.036706407 -0.00624847 0.24026716 0.19607313 0.21379136 -0.10194614 -0.10729011 0.03851401
-0.10990567 0.052341618 -0.04590837 0.015003382 -0.13752435 -0.030491728 -0.14857313 -0.004385658
0.040823348 0.032068502 -0.074127056 -0.13309851 0.002856875 -0.11127398 -0.08588023 -0.031358026
-0.14249076 -0.09999821 0.058242716 0.06714326 0.03221259 -0.02275506 -0.09198694 0.08165495
0.11980904 0.07458236 -0.06458056 0.019297367 -0.034785286 0.12944494 0.105216764 0.010862077
0.13901831 -0.044180006 -0.0611291 0.080961786 0.16296399 0.18443651 0.08075467 0.105064176
0.14512485 -0.05207101 0.083324745 0.025697095 -0.065928824 0.11086147 0.09643152 0.016619192
0.024627287 0.11830191 0.11621006 0.066408224 -0.066233866 0.04825205 0.01590029 -0.11509083
0.0463982 -0.061650794 -0.053998955 0.050535362 0.02902157 -0.020597609 -0.009288721 0.02218839
0.02387247 -0.13664576 0.049478542 -0.059111416 -0.036667384 0.03298469 -0.11611999 0.059230257
-0.043026697 -0.020634683 -0.10324996 -0.07383211 -0.022908986 -0.11807354 -0.108524896 -0.17162843
-0.09889572 -0.07415263 0.055362977 -0.14299892 -0.17201172 -0.027121067 -0.17962249 0.091962904
-0.114439934 -0.05041533 -0.12059667 -0.0065280637 -0.07311099 -0.05760624 0.06188761 0.066345245
0.02597776 0.081177555 0.09175283 0.025928631 -0.06591127 -0.104016 0.12144714 0.04418023
-0.049729545 -0.08627122 -0.029043844 0.1082809 -0.03852285 0.061901126 -0.065092 0.009294098
-0.05270266 -0.04598513 -0.03876512 0.082064904 -0.015854819 0.007878074 0.008713792 0.05594343
-0.07092549 0.21021242 0.052861102 0.043371312 -0.107938744 -0.31719726 0.071577676 -0.04555756
-0.0062471004 0.054575812 0.026985819 -0.02202973 -0.037859067 0.00962787 0.004457881 -0.11024459
0.1240096 -0.015259055 -0.044046853 0.08703186 0.102826335 0.06991857 -0.037604026 0.02834078
0.16983803 0.01754985 0.11961566 0.004580197 0.17393842 -0.03313755 -0.2656182 0.080148175
0.10686966 0.064227186 -0.00076111854 0.048847333 0.1005814 -0.03030196 -0.051846534 0.01778237
-0.058730677 -0.062257763 0.06883811 -0.049068853 0.010229754 -0.10874793 0.12316253 0.07015909
0.17077784 0.0020096907 -0.19657643 0.07090374 0.008012561 -0.10340132 -0.23300046 -0.6240132
-0.14948435 0.030564124 -0.10101094 -0.09242497 -0.034264963 0.07680916 0.060342394 -0.0968312
-0.0811336 -0.034310732 0.007821328 -0.06384221 0.036183737 0.11451009 0.110973835 0.102452435
-0.057856385 0.07040778 0.13586563 -0.009007501 -0.033063598 0.060257565 0.03297021 -0.041225743
-0.040813435 -0.068210624 0.03851543 0.0667025 -0.039698936 -0.1146884 -0.12154879 0.043092333
00000000: 32e8 a7bd ac9b 7ebd cbdf 1a3d b923 57bd
00000010: ac97 833c 06ab 77bd ae25 7fbd d10c 933d
00000020: 87d0 f83d 92ea ae3d df31 01be 1ad7 ef3d
00000030: f6ed cebb 306a adbd e86a 07bc 3195 6cbd
00000040: 3015 d8bd 8914 173e da34 ac3d dc7a 093c
00000050: 6198 04be 9527 11be 9c3e 36bd eb4d 47be
00000060: e2a0 1fbe 5633 0abe f20a b6bd a8ec 373e
00000070: a452 973d 26c4 263d 4541 1ebd 3a82 9dbc
00000080: f1bf 4e3e ce0a 853d 9e0d 393e bfc0 e23c
00000090: 4457 c53c 128b 6c3e 6336 e13d ae00 023e
000000a0: 7559 163d f7bf ccbb 9808 763e 65c7 483e
000000b0: 1fec 5a3e 23c9 d0bd ebba dbbd dec0 1d3d
000000c0: 3916 e1bd 2a64 563d 6a0a 3cbd bfd0 753c
000000d0: 2fd3 0cbe cac9 f9bc 8e23 18be 91b5 8fbb
000000e0: 6236 273d 435a 033d edcf 97bd fa4a 08be
000000f0: 693a 3b3b 9de3 e3bd f9e1 afbd 4671 00bd
00000100: 19e9 11be ddcb ccbd ea8f 6e3d 6882 893d
00000110: 59f1 033d d268 babc a663 bcbd b63a a73d
00000120: 715e f53d a3be 983d d042 84bd 8315 9e3c
00000130: 047b 0ebd 378d 043e e37b d73d daf6 313c
00000140: d15a 0e3e 18f6 34bd 8262 7abd 4bcf a53d
00000150: 08e0 263e eddc 3c3e b462 a53d e32b d73d
00000160: 9c9b 143e 6948 55bd 2aa6 aa3d b782 d23c
00000170: b105 87bd 570b e33d e47d c53d f924 883c
00000180: 2abf c93c 4648 f23d 8aff ed3d 0901 883d
00000190: 9fa5 87bd f1a3 453d 5341 823c beb4 ebbd
000001a0: 0a0c 3e3d 8b85 7cbd 022e 5dbd 2bfe 4e3d
000001b0: a5be ed3c 51bc a8bc b82f 18bc 6dc4 b53c
000001c0: 3390 c33c deec 0bbe 03aa 4a3d d01e 72bd
000001d0: 8a30 16bd f41a 073d 51d0 edbd 6d9b 723d
000001e0: c33c 30bd 110a a9bc b774 d3bd 4a35 97bd
000001f0: a0ab bbbc 8ad0 f1bd 4d42 debd 5dbf 2fbe
00000200: d789 cabd 56dd 97bd 4ac4 623d 4f6e 12be
00000210: d723 30be 002d debc f5ee 37be 0c57 bc3d
00000220: 7c5f eabd 4e80 4ebd 63fb f6bd 5ee9 d5bb
00000230: 37bb 95bd 85f4 6bbd dd7d 7d3d 04e0 873d
00000240: 50cf d43c 6b40 a63d e8e8 bb3d 4868 d43c
00000250: 7dfc 86bd 5706 d5bd 47b9 f83d 54f6 343d
00000260: 35b1 4bbd f7ae b0bd 5bed edbc 60c2 dd3d
00000270: 23ca 1dbd 098c 7d3d f44e 85bd 4646 183c
00000280: bfde 57bd e75a 3cbd 2dc8 1ebd a511 a83d
00000290: f7e1 81bc 0a13 013c 4bc4 0e3c f024 653d
000002a0: 6241 91bd ed41 573e e284 583d 1ea6 313d
000002b0: fd0e ddbd ae67 a2be 5197 923d 909a 3abd
000002c0: 7ab4 ccbb e38a 5f3d 5d11 dd3c b177 b4bc
000002d0: 1c12 1bbd 37be 1d3c 6b13 923b eac7 e1bd
000002e0: bff8 fd3d 1e01 7abc 796a 34bd c33d b23d
000002f0: 9d96 d23d 7831 8f3d ae06 1abd ec2a e83c
00000300: 05ea 2d3e b4c4 8f3c 0ef9 f43d 7a15 963b
00000310: ea1c 323e 3dbb 07bd 1cff 87be ba24 a43d
00000320: 7bde da3d 8b89 833d cd85 47ba 2414 483d
00000330: 9ffd cd3d d13b f8bc 085d 54bd 55ac 913c
00000340: 948f 70bd ff01 7fbd fffa 8c3d 6cfc 48bd
00000350: b39a 273c 3cb7 debd a33c fc3d 92af 8f3d
00000360: 63e0 2e3e 04b5 033b 554b 49be fb35 913d
00000370: 1e47 033c 12c4 d3bd ac97 6ebe 54bf 1fbf
00000380: 6d12 19be 9d61 fa3c d3de cebd 4d49 bdbd
00000390: 6b59 0cbd 1f4e 9d3d 9629 773d 704f c6bd
000003a0: 5f29 a6bd 6989 0cbd 0725 003c b4bf 82bd
000003b0: 6635 143d 4484 ea3d 4046 e33d 95d2 d13d
000003c0: d1fa 6cbd f431 903d 5c20 0b3e 3394 13bc
000003d0: b26d 07bd a3d0 763d c50b 073d 53dc 28bd
000003e0: fd2b 27bd 03b2 8bbd 5bc2 1d3d 529b 883d
000003f0: 5a9b 22bd c0e1 eabd 92ee f8bd 9681 303d

conv1.bias f4 [16]
0.021244168 -0.07047767 0.05958096 -0.42970565 -0.26695973 -0.035306882 0.052598514 0.18105063
0.024031179 0.038207334 0.07019894 -0.10808375 0.0042614113 -0.030758638 0.07085974 0.16424687
00000000: 4008 ae3c 9956 90bd 2a0b 743d 6102 dcbe
00000010: f2ae 88be f39d 10bd 8a71 573d 5665 393e
00000020: 09dd c43c 4b7f 1c3d 76c4 8f3d 035b ddbd
00000030: 4fa3 8b3b 8af9 fbbc e91e 913d 5530 283e

conv2.weight f4 [16, 4, 3, 3]
-0.14090902 -0.11290454 -0.1050717 0.02053141 -0.14802915 0.055570357 0.051516365 -0.03552682
-0.018556004 0.03390018 0.08415445 0.048665788 -0.12914138 -0.081354156 -0.21142551 -0.20166549
-0.20270327 -0.0323777 -0.044546947 0.060591508 0.13698907 -0.12741022 -0.06605114 -0.0540304
-0.2569147 -0.13435021 -0.09145643 0.0058221323 -0.09211314 -0.11405184 -0.20516208 -0.06467853
0.0072671347 0.07441063 -0.17464189 0.060284737 0.10342897 0.055717986 0.2192537 -0.07842733
-0.00575496 -0.118055746 -0.120238066 0.025795568 -0.13039361 0.14210124 -0.11733242 0.1302896
-0.04454231 -0.040189207 -0.09867878 -0.01969853 0.08049281 -0.035772674 0.17465459 0.044303544
0.21885471 -0.06836572 -0.19840193 -0.07491275 -0.18096562 -0.1328879 -0.1473076 -0.018688774
0.12312388 -0.015179665 -0.02360729 -0.15173909 0.010309354 0.05931826 0.05189318 -0.02114108
0.039102655 0.015693808 -0.08865068 -0.10324596 0.00074006733 0.024675822 0.012694715 -0.008285611
-0.11867549 -0.07663279 0.008411853 0.08794261 -0.10049227 -0.002177513 -0.16955678 0.022135586
-0.0036536937 0.16074266 -0.11079793 -0.16124971 -0.06924449 -0.26174596 -0.2052019 0.120612524
0.07261522 0.1533541 -0.14265282 -0.031413756 0.0026843925 -0.10967913 -0.08981075 -0.05597028
-0.050687145 0.05469506 0.095212735 -0.08068879 -0.10031982 0.0028238264 0.11364211 -0.4200593
0.004777889 0.078120664 -0.03494942 -0.27343163 -0.16313891 -0.067807645 -0.3065675 -0.17505345
-0.14565742 -0.08555882 -0.06873529 0.030669855 -0.038944606 -0.16935252 0.005701482 0.041178036
0.07211223 0.089510754 0.062150046 -0.024828793 0.004547388 0.06771029 -0.21726377 0.017269874
-0.03777917 -0.187068 0.011385996 0.07992055 0.05932877 0.14430435 0.12803736 0.08146716
-0.0068559805 -0.0019202859 -0.06628677 -0.06082379 -0.05860564 -0.049215145 0.013632771 0.092554905
0.06898508 -0.04625481 0.087239616 -0.05562997 0.12346882 -0.1155834 0.015806146 -0.072104335
0.06997735 -0.04238165 0.030041603 0.044838116 2.2852451e-05 0.11290498 0.12011683 0.08531347
-0.051329274 -0.02879691 -0.14455009 0.03482076 -0.007018442 0.011697977 0.04577842 0.04134295
-0.0058625974 -0.0032567428 -0.084780626 0.073248565 -0.18017474 0.076740064 -0.11153834 0.049488798
0.014352887 0.05998579 -0.046373777 -0.13542223 -0.01007736 -0.38891065 0.14809906 0.16784881
-0.1975214 0.05870455 0.16499881 -0.11039077 0.0010042231 -0.3009706 0.04842149 -0.020649789
-0.050426584 -0.047859773 0.04983667 -0.03365812 -0.12019564 -0.19320829 -0.13929027 0.023472149
-0.033049732 -0.03581695 0.092723474 0.133832 -0.047385816 -0.19046943 0.0040757935 -0.12054339
-0.06464953 -0.027943678 0.10127205 0.053292114 0.037986696 -0.124949954 0.01645711 -0.063171916
0.053324144 -0.053320557 0.041563045 0.05145983 -0.023313945 0.038613755 -0.11744279 -0.035481982
0.12482545 0.027185882 -0.01561486 -0.13159093 -0.096215576 0.0382974 -0.04647407 -0.06557552
-0.116544746 -0.014973346 0.07496123 -0.055657312 -0.106325544 -0.06481619 -0.017506465 -0.056646585
0.16097678 -0.059112012 0.12636198 0.14198734 -0.16476724 0.117467135 -0.23261453 -0.16919304
00000000: 744a 10be 7f3a e7bd d52f d7bd 7d31 a83c
00000010: f494 17be be9d 633d d302 533d 9284 11bd
00000020: c302 98bc eada 0a3d 2b59 ac3d c755 473d
00000030: a33d 04be 029d a6bd ee7f 58be 6681 4ebe
00000040: 7291 4fbe 7b9e 04bd dc76 36bd cd2e 783d
00000050: dd46 0c3e d377 02be d245 87bd fb4e 5dbd
00000060: 538a 83be 1a93 09be 824d bbbd 96c7 be3b
00000070: d0a5 bcbd 0394 e9bd 0216 52be 2d76 84bd
00000080: 2521 ee3b 9a64 983d 53d5 32be 21ed 763d
00000090: 91d2 d33d 8b38 643d 0b84 603e 829e a0bd
000000a0: 1a94 bcbb 36c7 f1bd 603f f6bd 3a51 d33c
000000b0: e785 05be fd82 113e fb4b f0bd a36a 053e
000000c0: ff71 36bd 709d 24bd 1a18 cabd d05e a1bc
000000d0: 6ad9 a43d 5e86 12bd a7d8 323e a277 353d
000000e0: 731b 603e 5403 8cbd e029 4bbe db6b 99bd
000000f0: 0d4f 39be c413 08be ced7 16be 3319 99bc
00000100: 5f28 fc3d 21b4 78bc 1364 c1bc 7e61 1bbe
00000110: 91e8 283c b4f7 723d f18d 543d 0f30 adbc
00000120: 1b2a 203d 4d90 803c 7d8e b5bd 9e72 d3bd
00000130: 1401 423a f324 ca3c 7efd 4f3c 5fc0 07bc
00000140: 230c f3bd a7f1 9cbd ded1 093c 411b b43d
00000150: e4ce cdbd 9bb4 0ebb 4ba0 2dbe b055 b53c
00000160: cf72 6fbb b999 243e 06ea e2bd a51e 25be
00000170: 0ed0 8dbd 9103 86be 7220 52be b303 f73d
00000180: 4ab7 943d db08 1d3e 9513 12be b6ab 00bd
00000190: a2ec 2f3b 749f e0bd b3ee b7bd 1841 65bd
000001a0: 539d 4fbd ed07 603d e5fe c23d 2a40 a5bd
000001b0: 7a74 cdbd f20f 393b 32bd e83d 0312 d7be
000001c0: d68f 9c3b bafd 9f3d 1f27 0fbd 3bff 8bbe
000001d0: e30d 27be bcde 8abd 6af6 9cbe 3641 33be
000001e0: 3827 15be 7639 afbd 16c5 8cbd 593f fb3c
000001f0: 6184 1fbd bf6a 2dbe 7fd3 ba3b 4daa 283d
00000200: 94af 933d 6a51 b73d 0c91 7e3d c165 cbbc
00000210: 4102 953b b1ab 8a3d 657a 5ebe 8d79 8d3c
00000220: 55be 1abd c18e 3fbe 548c 3a3c 63ad a33d
00000230: b902 733d 85c4 133e 3a1c 033e 41d8 a63d
00000240: 22a8 e0bb 1ab2 fbba 5cc1 87bd 5e22 79bd
00000250: 780c 70bd d295 49bd fc5b 5f3c 6d8d bd3d
00000260: 0d48 8d3d af75 3dbd afaa b23d 40dc 63bd
00000270: 38dd fc3d fdb6 ecbd e47b 813c 70ab 93bd
00000280: 4950 8f3d 6298 2dbd cf19 f63c 2ca8 373d
00000290: 44b3 bf37 ba3a e73d d0ff f53d d4b8 ae3d
000002a0: a53e 52bd 7fe7 ebbc f004 14be 37a0 0e3d
000002b0: f5fa e5bb dfa8 3f3c 2782 3b3d 3a57 293d
000002c0: 081b c0bb 146f 55bb 77a1 adbd 5803 963d
000002d0: ba7f 38be e529 9d3d 376e e4bd c4b4 4a3d
000002e0: 5f28 6b3c a9b3 753d 6ef2 3dbd 20ac 0abe
000002f0: 831b 25bc 4c1f c7be 48a7 173e 8fe0 2b3e
00000300: 0d43 4abe 2f74 703d 73f5 283e 8e14 e2bd
00000310: 23a0 833a d218 9abe 9d55 463d bf29 a9bc
00000320: 1b8c 4ebd 9c08 44bd 8921 4c3d 19dd 09bd
00000330: 2229 f6bd 65d8 45be 1ca2 0ebe aa48 c03c
00000340: 285f 07bd cbb4 12bd cee5 bd3d 410b 093e
00000350: a117 42bd 6b0a 43be 3c8e 853b 74df f6bd
00000360: f966 84bd 24ea e4bc b867 cf3d d548 5a3d
00000370: f097 1b3d c3e5 ffbd 10d1 863c 4760 81bd
00000380: 6b6a 5a3d a866 5abd 033e 2a3d 8bc7 523d
00000390: e3fc bebc 7529 1e3d d885 f0bd 8e55 11bd
000003a0: 7ca4 ff3d edb4 de3c 78d5 7fbc c6bf 06be
000003b0: ac0c c5bd bcdd 1c3d 985b 3ebd 754c 86bd
000003c0: 03af eebd c452 75bc 4685 993d ecf8 63bd
000003d0: 35c1 d9bd 5abe 84bd b869 8fbc 4006 68bd
000003e0: 19d7 243e 701f 72bd 0965 013e 2165 113e
000003f0: beb8 28be 9c92 f03d 8132 6ebe f140 2dbe

conv2.bias f4 [16]
-0.14671865 -0.008877208 0.0069449395 -0.06185744 -0.0351413 0.043622356 0.19219735 -0.010875454
0.023348417 -0.036987662 -0.07851951 -0.10131349 -0.024025109 -0.12085127 -0.17470732 -0.023486694
00000000: 6a3d 16be b671 11bc 6092 e33b 3a5e 7dbd
00000010: 53f0 0fbd 5bad 323d 62cf 443e f62e 32bc
00000020: 2e45 bf3c 6080 17bd d6ce a0bd 727d cfbd
00000030: 4ed0 c4bc df80 f7bd 7ae6 32be 2b67 c0bc

conv3.weight f4 [16, 4, 5, 5]
-0.06805787 -0.09432549 0.0132003315 -0.07626962 -0.08067323 -0.09030456 -0.044895872 -0.0045973496
0.10987888 -0.022726314 -0.18298523 -0.044786442 -0.06639393 0.096693866 0.0300826 -0.022532865
-0.06903616 -0.08830219 0.03922932 0.01827167 -0.0760007 0.029986598 -0.042967185 -0.03551775
-0.11228473 0.0140983835 0.060764514 -0.031014523 0.054440506 0.07670642 0.060002286 -0.0019144734
0.070652485 -0.034682598 -0.035992015 -0.03223523 -0.044813737 -0.036219593 -0.026838392 0.023591124
0.10539452 -0.005085143 0.061401986 -0.051982556 0.029036924 0.081513025 0.108992785 -0.031225534
-0.06599079 0.0059230537 -0.13089758 -0.13643073 0.029740317 0.09452712 -0.05694347 -0.14223617
-0.014757289 -0.09701287 -0.01881696 0.0022299231 -0.026017448 0.10135504 -0.06964481 -0.06356494
-0.09580476 0.08432148 0.08162725 -0.088392965 -0.079203434 -0.17947769 0.01930768 -0.036006067
-0.07787231 -0.064206906 -0.227191 0.08760641 0.049140368 -0.073134445 -0.13585803 -0.06462145
0.11552032 0.05525269 -0.0067208377 -0.14624605 -0.034955624 -0.034603935 0.046223916 0.085809596
0.024271537 -0.0071393945 -0.07672945 0.115939446 0.06400125 -0.03382022 -0.035510056 -0.017548548
0.024352496 0.02466328 0.061060637 -0.010044063 -0.030620612 -0.034047093 0.078257665 0.016799662
-0.029903302 0.099186525 -0.03689872 -0.0002193326 0.003755261 0.010176882 0.077259675 -0.0831739
-0.14150472 -0.010109356 0.013197053 -0.07745262 0.09651572 0.1527216 0.0055925422 0.03449992
-0.101345934 0.0076214634 -0.033422817 -0.10050806 -0.11058225 -0.018769357 0.02256154 -0.06387303
0.024875578 -0.013205495 0.08704694 -0.041314118 0.05495469 0.06446059 0.028726973 -0.043085337
-0.065718554 0.034488935 -0.15561624 0.011410396 0.033422023 -0.06250412 0.06707356 -0.025263065
0.124033354 0.0840675 -0.09723848 0.027697103 -0.07878945 -0.055983033 0.019336073 -0.15034337
-0.061758358 -0.19107017 0.23384431 -0.105737686 0.029924631 -0.045616582 -0.21887533 0.17794722
-0.002412264 -0.09881303 -0.34403107 -0.052801415 0.16444258 -0.26117015 -0.029377691 0.15132774
0.103187956 0.090576194 0.047677062 0.09449446 0.096152775 -0.03792037 0.004694292 -0.041469406
-0.077219635 -0.1819794 -0.00011730583 0.068832695 -0.0021322651 -0.079357624 -0.016744243 -0.037659287
0.060747087 -0.09957125 -0.098708995 0.049683522 0.056817804 0.0278659 -0.11933445 0.08402216
0.14969036 -0.04245755 -0.0869781 0.10190254 0.1556591 -0.04935493 0.06286826 0.059661478
-0.06250469 -0.0001152954 -0.068353124 -0.025242744 -0.055042997 -0.124190845 0.045061767 -0.035067674
0.05523857 0.0113414945 -0.0029430983 -0.024694124 -0.0044159424 0.01196753 -0.015194997 0.029459413
0.07148021 -0.06273137 0.0600007 0.037198473 -0.1755803 -0.0012607338 -0.045898337 -0.008285256
0.007443728 0.05209289 -0.06819931 -0.009384165 0.04305133 -0.026575645 0.018740045 0.0012136466
0.10460487 0.075084396 -0.0392855 0.06596383 -0.17034245 0.013745347 -0.023312187 -0.103921115
0.09543474 -0.08824577 0.023182632 0.07407155 -0.037142564 0.1680148 -0.071738385 0.10583569
-0.077474706 -0.10658899 -0.047754075 0.16689827 0.07271819 -0.026694637 -0.084964186 0.1627549
00000000: ed61 8bbd b92d c1bd 3446 583c 3f33 9cbd
00000010: 0238 a5bd 99f1 b8bd bce4 37bd 5da5 96bb
00000020: 2e08 e13d 892c babc 7b60 3bbe fd71 37bd
00000030: 8af9 87bd 6f07 c63d c96f f63c d896 b8bc
00000040: d562 8dbd c7d7 b4bd ecae 203d 78ae 953c
00000050: 41a6 9bbd 74a6 f53c 5cfe 2fbd 0f7b 11bd
00000060: 89f5 e5bd e8fc 663c 36e4 783d 2b12 febc
00000070: 02fd 5e3d 4118 9d3d f5c4 753d 11ef faba
00000080: 40b2 903d 570f 0ebd 5d6c 13bd 1709 04bd
00000090: 9c8e 37bd ff5a 14bd 30dc dbbc 2c42 c13c
000000a0: 15d9 d73d 45a1 a6bb a680 7b3d a9eb 54bd
000000b0: d8de ed3c 4df0 a63d 9c37 df3d b1cc ffbc
000000c0: 2e26 87bd 2d16 c23b 040a 06be 7fb4 0bbe
000000d0: f7a1 f33c 6f97 c13d 8e3d 69bd 5ca6 11be
000000e0: 8ec8 71bc afae c6bd 0626 9abc e723 123b
000000f0: 8b22 d5bc 3b93 cf3d f0a1 8ebd 562e 82bd
00000100: 4935 c4bd bdb0 ac3d 302c a73d 5f07 b5bd
00000110: 6935 a2bd 00c9 37be 242b 9e3c 197b 13bd
00000120: 857b 9fbd e97e 83bd c2a4 68be fd6a b33d
00000130: 6947 493d 83c7 95bd 5e1e 0bbe 4058 84bd
00000140: eb95 ec3d a550 623d 793a dcbb 86c1 15be
00000150: a12d 0fbd dbbc 0dbd 4a55 3d3d f1bc af3d
00000160: 1ad5 c63c 95f1 e9bb 5424 9dbd a971 ed3d
00000170: 1613 833d 1287 0abd fe72 11bd f9c1 8fbc
00000180: e37e c73c a60a ca3c b81a 7a3d db8f 24bc
00000190: 14d8 fabc f774 0bbd 8e45 a03d 729f 893c
000001a0: c5f7 f4bc 4e22 cb3d 1d23 17bd a6fc 65b9
000001b0: d31a 763b f0bc 263c 523a 9e3d 1457 aabd
000001c0: 9de6 10be b6a1 25bc 7438 583c 7b9f 9ebd
000001d0: 09aa c53d 0d63 1c3e a541 b73b ca4f 0d3d
000001e0: 758e cfbd 78bd f93b 5de6 08bd 2bd7 cdbd
000001f0: f278 e2bd 32c2 99bc fbd2 b83c ddcf 82bd
00000200: dec7 cb3c dc5b 58bc ab45 b23d fe38 29bd
00000210: 2b18 613d ea03 843d d454 eb3c 407a 30bd
00000220: 7397 86bd 4544 0d3d dd59 1fbe abf2 3a3c
00000230: 88e5 083d 2902 80bd dd5d 893d 7df4 cebc
00000240: 3305 fe3d 952b ac3d f824 c7bd 09e5 e23c
00000250: 5d5c a1bd 774e 65bd af66 9e3c 9df3 19be
00000260: 55f6 7cbd e6a7 43be e274 6f3e 008d d8bd
00000270: 8024 f53c 74d8 3abd db20 60be cc37 363e
00000280: 1317 1ebb 7c5e cabd d724 b0be 4c46 58bd
00000290: a363 283e 18b8 85be 7ca9 f0bc a9f5 1a3e
000002a0: 3554 d33d 0380 b93d 0649 433d 5086 c13d
000002b0: bfeb c43d 6452 1bbd 93d2 993b d3db 29bd
000002c0: 5425 9ebd cf58 3abe 1702 f6b8 28f8 8c3d
000002d0: 79bd 0bbb 4086 a2bd 392b 89bc a040 1abd
000002e0: f0d1 783d 03ec cbbd f127 cabd f380 4b3d
000002f0: c9b9 683d 0747 e43c 9f65 f4bd cf13 ac3d
00000300: 6e48 193e f8e7 2dbd 9321 b2bd 47b2 d03d
00000310: 1965 1f3e 6528 4abd 13c1 803d 985f 743d
00000320: 7502 80bd bfca f1b8 b9fc 8bbd dfc9 cebc
00000330: c474 61bd c557 febd b092 383d 1fa3 0fbd
00000340: d741 623d add1 393c ffe0 40bb 554b cabc
00000350: 9cb3 90bb 7513 443c 70f4 78bc de54 f13c
00000360: 3764 923d 4e79 80bd 4bc3 753d 6d5d 183d
00000370: 52cb 33be 353f a5ba e5ff 3bbd e2be 07bc
00000380: 84ea f33b 5b5f 553d 14ac 8bbd 0ac0 19bc
00000390: 9756 303d 2bb5 d9bc b984 993c 3913 9f3a
000003a0: 143b d63d d9c5 993d d5e9 20bd 0b18 873d
000003b0: 406e 2ebe 2a34 613c 33f9 bebc 98d4 d4bd
000003c0: 4a73 c33d 33ba b4bd 81e9 bd3c d3b2 973d
000003d0: cd22 18bd 120c 2c3e 93eb 92bd 62c0 d83d
000003e0: 0fab 9ebd 544b dabd c799 43bd 61e7 2a3e
000003f0: 46ed 943d b6ae dabc b401 aebd 38a9 263e

conv3.bias f4 [16]
0.045809325 -0.004225466 -0.023162082 0.017238488 -0.09160321 -0.0805188 -0.13263011 0.14555162
-0.034422632 -0.048978217 0.06350172 -0.10990776 -0.0088753095 -0.016944211 0.006081914 0.0552795
00000000: 8fa2 3b3d c775 8abb 68be bdbc bb37 8d3c
00000010: 779a bbbd 0ae7 a4bd 30d0 07be 7c0b 153e
00000020: bffe 0cbd 629d 48bd 310d 823d 5217 e1bd
00000030: bf69 11bc 96ce 8abc cb4a c73b c26c 623d

conv4.weight f4 [16, 4, 7, 7]
-0.09011005 0.028502116 -0.015275615 -0.01468796 -0.004886074 -0.024234828 -0.048472915 -0.061406918
0.03840438 -0.05122967 -0.02302247 0.0029779035 0.047051508 0.031658508 -0.0049828007 -0.024493389
-0.06892581 -0.049521983 -0.008354159 -0.049085226 -0.024214275 -0.054203596 0.009835386 0.0007442253
-0.08798022 0.0027185483 -0.022967035 -0.047216836 -0.046188544 0.012487653 0.0026429528 0.03343966
0.084950544 0.0058909967 -0.046907168 -0.10614241 0.056917198 -0.027828114 -0.04289406 0.06404255
-0.00053449784 0.006079412 -0.1405082 -0.042745218 -0.013215902 -0.11115928 0.013719674 -0.037506275
-0.039205533 -0.094085604 -0.034677353 -0.041243363 0.008468583 0.020876309 -0.039881002 -0.115498975
0.033806488 0.045482494 0.035725575 0.016748954 0.059730474 -0.0110583175 -0.04204818 0.0124326935
0.034448598 0.01712018 -0.0059346426 0.027444849 -0.011383729 0.015708115 -0.041334502 -0.052073646
-0.032263458 0.0998955 0.108497225 0.02782824 0.0069646705 -0.059789393 -0.095799565 -0.05835901
-0.068049364 0.02120912 -0.030121624 0.011154894 0.06446352 -0.00994239 -0.0763507 -0.01893205
0.071368314 -0.015287211 -0.049513705 0.15998484 0.0332959 0.15687217 0.10695803 -0.011435075
-0.066351935 -0.13868341 -0.09283336 -0.048480142 -0.059401967 -0.022522364 -0.0077447253 0.015099514
-0.060076304 -0.0038773443 0.013059695 0.002693557 -0.029279886 -0.052606788 0.010808057 -0.036257505
-0.00490852 0.07309482 -0.0065423185 -0.047115024 -0.0064688404 -0.03329995 -0.058477163 -0.014387955
0.17797506 0.056745663 0.0043038027 -0.056965068 -0.04441587 -0.08864159 -0.035622846 0.097895466
-0.05190687 -0.05787745 -0.01560897 -0.035672106 -0.054269493 0.22346652 0.08829132 -0.042440385
-0.092831224 -0.0168937 -0.013903399 -0.099499665 0.4982409 0.14580743 -0.10769615 -0.06355245
0.07822048 -0.0512038 -0.1921945 -0.10141662 0.041657317 -0.029146941 -0.011502062 0.04355305
-0.012378075 0.017410645 -0.07556304 -0.036227293 -0.02770159 -0.004020002 0.013176035 -0.028203096
0.015021283 0.00839845 0.06999335 -0.033728786 -0.034647774 -0.05197345 0.022068247 -0.031822603
0.047094584 0.029503068 0.04799239 0.025281927 0.016428865 -0.07258061 -0.13463642 0.011849896
0.036202155 -0.0123183755 0.02857998 -0.019611085 -0.006249076 -0.01911665 -0.052814923 0.062349692
0.027815172 0.0121549675 0.026936017 0.04958405 -0.06894022 -0.029618805 0.080261305 0.10698165
0.08113785 0.1322894 -0.026613936 -0.09221629 -0.050028674 -0.05876901 -0.06835431 0.002399223
0.036049917 -0.0018143834 0.0017041959 0.051688146 0.028145917 0.013593878 0.04949932 0.0139292665
-0.06899487 -0.028692262 -0.0808547 0.04033375 -0.035453808 -0.010551453 -0.042882126 -0.058902618
-0.012637787 -0.035733886 -0.082547955 -0.052871123 0.038005065 0.059426636 -0.05045029 -0.036389157
-0.07370038 -0.006135622 -0.009369685 0.021896606 -0.013824842 -0.04188583 -0.007828854 -0.003965662
0.011910942 0.0035358965 -0.028337145 0.029779833 -0.04004478 0.023343699 -0.053805392 0.011178255
-0.06617298 0.046215072 -0.05239167 -0.054635648 -0.04361556 0.025122449 -0.10272312 -0.07631663
-0.037134223 -0.0601468 -0.091414936 -0.012462057 -0.07870767 -0.02811323 -0.018373273 -0.0724146
00000000: 9e8b b8bd 457d e93c 9346 7abc c5a5 70bc
00000010: 5c1b a0bb 1e88 c6bc 898b 46bd d285 7bbd
00000020: e94d 1d3d 34d6 51bd 9e99 bcbc ee28 433b
00000030: 15b9 403d 5aac 013d c346 a3bb 5ca6 c8bc
00000040: fa28 8dbd 90d7 4abd e2df 08bc 970d 49bd
00000050: 045d c6bc 9704 5ebd 9924 213c 1d18 433a
00000060: f92e b4bd ac29 323b 5d25 bcbc 7166 41bd
00000070: 3330 3dbd 0399 4c3c 6435 2d3b 06f8 083d
00000080: 8dfa ad3d 4309 c13b bb21 40bd 3161 d9bd
00000090: 0222 693d c9f7 e3bc afb1 2fbd be28 833d
000000a0: 8b1d 0cba ce35 c73b 62e1 0fbe 9c15 2fbd
000000b0: 8387 58bc 7aa7 e3bd 7cc8 603c 2ea0 19bd
000000c0: fb95 20bd f4af c0bd d709 0ebd cdee 28bd
000000d0: d0bf 0a3c cb04 ab3c 435a 23bd ba8a ecbd
000000e0: ac78 0a3d da4b 3a3d fb54 123d 1a35 893c
000000f0: f1a7 743d f22d 35bc b63a 2cbd 7fb2 4b3c
00000100: f919 0d3d 9f3f 8c3c 6477 c2bb 05d4 e03c
00000110: d282 3abc 4eae 803c 5e4e 29bd 2d4b 55bd
00000120: b026 04bd 0396 cc3d cb33 de3d 0df8 e33c
00000130: e437 e43b b9e5 74bd 9032 c4bd db09 6fbd
00000140: 775d 8bbd c0be ad3c a0c1 f6bc 04c3 363c
00000150: 7305 843d 68e5 22bc c15d 9cbd 6317 9bbc
00000160: 8d29 923d 3677 7abc e2ce 4abd 11d3 233e
00000170: 4861 083d 19a3 203e d00c db3d 2e5a 3bbc
00000180: 86e3 87bd 0603 0ebe 6b1f bebd 1d93 46bd
00000190: 7a4f 73bd d280 b8bc 77c7 fdbb f463 773c
000001a0: 9212 76bd 0b1b 7ebb 55f8 553c 6386 303b
000001b0: 5fdc efbc 377a 57bd 4714 313c c082 14bd
000001c0: a6d7 a0bb bdb2 953d f260 d6bb affb 40bd
000001d0: 91f8 d3bb 8765 08bd c085 6fbd 75bb 6bbc
000001e0: 183f 363e 246e 683d ea06 8d3b 3454 69bd
000001f0: 6aed 35bd b989 b5bd 43e9 11bd 6b7d c83d
00000200: 4c9c 54bd e810 6dbd c4bc 7fbc ea1c 12bd
00000210: b049 5ebd 68d4 643e 14d2 b43d f8d5 2dbd
00000220: 4c1e bebd a864 8abc 15cb 63bc 7bc6 cbbd
00000230: 6e19 ff3e 8b4e 153e cd8f dcbd c927 82bd
00000240: 0f32 a03d 13bb 51bd a3ce 44be 84b3 cfbd
00000250: dda0 2a3d 91c5 eebc 2573 3cbc af64 323d
00000260: 69cd 4abc c5a0 8e3c ccc0 9abd 1263 14bd
00000270: 72ee e2bc 39ba 83bb 4ce0 573c 2e0a e7bc
00000280: d41b 763c a799 093c ac58 8f3d 3227 0abd
00000290: d3ea 0dbd 1de2 54bd 78c8 b43c 6b58 02bd
000002a0: 40e6 403d 6bb0 f13c ab93 443d 0b1c cf3c
000002b0: d495 863c 25a5 94bd 21de 09be 1126 423c
000002c0: b648 143d 03d3 49bc 9020 ea3c 6da7 a0bc
000002d0: 0dc5 ccbb 859a 9cbc 7654 58bd 6462 7f3d
000002e0: a5dc e33c a125 473c eca8 dc3c a518 4b3d
000002f0: 8830 8dbd 23a3 f2bc 0a60 a43d 3219 db3d
00000300: 9a2b a63d df76 073e 7805 dabc e5db bcbd
00000310: deea 4cbd c6b7 70bd 58fd 8bbd 483c 1d3b
00000320: 14a9 133d 9bd0 edba 535f df3a f3b6 533d
00000330: 4492 e63c dbb8 5e3c cdbf 4a3d 9437 643c
00000340: 2f4d 8dbd 090c ebbc 2697 a5bd 0135 253d
00000350: 0338 11bd 00e0 2cbc 2ba5 2fbd df43 71bd
00000360: b80e 4fbc b25d 12bd e70e a9bd 648f 58bd
00000370: 33ab 1b3d 5869 733d f7a4 4ebd cc0c 15bd
00000380: 3af0 96bd 540d c9bb 4f83 19bc 8360 b33c
00000390: 9781 62bc 7a90 2bbd 9844 00bc 62f2 81bb
000003a0: 1d26 433c 80ba 673b 4d23 e8bc d6f4 f33c
000003b0: ff05 24bd 493b bf3c 0b63 5cbd 0025 373c
000003c0: b385 87bd 044c 3d3d a698 56bd a1c9 5fbd
000003d0: 3ba6 32bd 98cd cd3c 8060 d2bd e54b 9cbd
000003e0: 0e1a 18bd 7e5c 76bd c137 bbbd a82d 4cbc
000003f0: 7d31 a1bd b74d e6bc 8c83 96bc 1b4e 94bd

conv4.bias f4 [16]
0.024109975 -0.010319428 -0.13721873 0.004546251 0.13881056 -0.09091638 -0.08517637 -0.011536946
0.03425564 0.005351194 0.011061384 -0.11271375 -0.01513247 -0.007919677 0.0002294021 -0.034071423
00000000: 4882 c53c d112 29bc 1183 0cbe b8f8 943b
00000010: 5b24 0e3e 5e32 babd f370 aebd 7505 3dbc
00000020: a44f 0c3d 1259 af3b cf3a 353c 77d6 e6bd
00000030: 2eee 77bc 88c1 01bc a88b 7039 7a8e 0bbd

conv5.weight f4 [1, 48, 6, 6]
0.017732266 -0.042036053 -0.06250943 -0.03146433 -0.035309333 0.02576322 -0.012072461 -0.009338096
-0.040381175 -0.028452534 -0.031555902 -0.02235791 0.017318834 0.028918028 0.0012161118 0.020390527
0.017483806 0.017428983 0.037066773 0.017966323 0.021282675 0.007794491 0.029938506 -0.010973562
0.021544542 0.0069191796 0.011282044 0.0057306476 0.03683381 0.01120328 0.030064054 0.028523678
0.036795262 0.04432032 0.0373599 0.047563277 -0.04440229 -0.04066604 -0.026761258 -0.018702244
-0.01270728 -0.04262229 -0.028570605 -0.0139439 0.00037429968 -0.0036944381 -0.0064321263 -0.033288382
-0.027433615 0.011154611 -0.010412233 0.004140949 0.000276429 -0.024037445 -0.011447241 -0.008485703
-0.0073538017 -0.0026327837 -0.0055814935 -0.03167478 -0.025276773 0.017461035 0.008543892 0.0074533005
0.008759633 -0.010633423 -0.033616938 -0.032049358 -0.009800482 -0.009023855 0.0032483574 -0.044170074
0.0118308095 0.05767427 0.051797103 0.035061434 -0.00431579 -0.0032192792 -0.06815446 -0.0320604
0.025258288 -0.024568824 -0.033410933 -0.070810184 -0.06242067 0.0032319287 0.00091195427 -0.012245853
-0.01827519 -0.012423231 -0.11543681 -0.037358157 -0.0058368454 -0.0024846704 -0.052527722 -0.044592813
-0.10545583 -0.030246623 0.008591658 -0.023057742 -0.02494659 -0.033807475 -0.103058726 -0.023255719
-0.038038734 -0.041323878 -0.03038031 -0.051576857 -0.003986115 0.0030378415 0.017171985 0.016896501
-0.00249654 0.016631009 0.012104104 0.023172513 -0.003352541 0.015480675 0.02237013 0.017963553
0.004876993 0.0041359575 -0.0008329715 -0.033285357 0.005093844 0.0065940805 0.010633327 -0.017535461
0.018958483 -0.00484964 -0.014794668 0.0017158274 0.018600976 0.014841307 -0.019830758 0.0134217255
0.010151261 0.0043822504 -0.004815293 -0.0098446375 0.0037067356 0.004048209 -0.002667082 0.023296116
-0.042713903 0.0059871185 -0.03136863 -0.050369147 -0.030956056 0.041771032 0.013249123 0.010178687
0.014500094 -0.035176348 -0.017105613 0.037566185 0.0011899367 -0.0010541267 -0.030518332 -0.032201678
-0.019331282 0.036539115 -0.018532602 -0.008960653 0.008395675 -0.028703457 -0.010274536 0.049858216
0.017493857 0.01298767 0.0030145156 -0.0025225817 -0.0015500739 0.07544498 0.039582808 0.01220952
-0.0111477 0.018420275 0.027096018 0.12249805 0.09508033 0.02522841 0.035635542 0.01631825
0.05691591 0.0929789 0.04518524 -0.0052234246 -0.007968426 0.020605775 0.0036253724 0.047745954
0.024882419 -0.0042410893 -0.0057042707 -0.029980436 0.01486938 0.03774066 0.03716199 -0.026404314
-0.007321945 0.00028123034 -0.001542007 0.05940594 0.040899593 -0.026834842 -0.02803537 -0.00868528
0.006433355 0.005876267 0.052433625 0.017455155 -0.00057397183 0.003257417 0.024257362 0.08185541
0.07500694 0.03739466 0.034643825 0.039583355 0.0371686 0.042313557 0.027354458 0.04682858
0.020543607 0.024300262 0.013839161 0.042077366 0.044165995 0.006862511 0.028575487 -0.0064238687
0.02346748 0.01838488 0.02332913 -0.002704578 0.01134724 -0.00027060337 0.0028446598 0.013069837
0.039228935 0.0029358747 0.025218723 0.02132517 0.013659275 0.04973389 0.055416428 0.018175157
0.04065132 0.04107142 0.0484845 0.07259627 -0.051582236 -0.04051881 -0.0101273805 -0.0024824736
00000000: 4243 913c ff2d 2cbd f204 80bd bee0 00bd
00000010: 85a0 10bd 630d d33c 92cb 45bc d0fe 18bc
00000020: bb66 25bd 4a15 e9bc c340 01bd f027 b7bc
00000030: 3ae0 8d3c 80e5 ec3c f165 9f3a 090a a73c
00000040: 333a 8f3c 3ac7 8e3c 54d3 173d 1c2e 933c
00000050: 0159 ae3c ee68 ff3b 9941 f53c 74ca 33bc
00000060: 2e7e b03c 49ba e23b 53d8 383c 28c8 bb3b
00000070: 0ddf 163d f68d 373c e448 f63c 7daa e93c
00000080: a1b6 163d 3989 353d b206 193d b6d1 423d
00000090: 2ddf 35bd 6f91 26bd 6d3a dbbc 7335 99bc
000000a0: 3232 50bc b694 2ebd e70c eabc f574 64bc
000000b0: a73d c439 631e 72bb 96c4 d2bb 6659 08bd
000000c0: 76bc e0bc d4c1 363c 1298 2abc ccb0 873b
000000d0: aced 9039 2dea c4bc 358d 3bbc 9e07 0bbc
000000e0: 29f8 f0bb c88a 2cbb f6e4 b6bb 6abd 01bd
000000f0: 3c11 cfbc 720a 8f3c aefb 0b3c d13a f43b
00000100: 9084 0f3c cf37 2ebc eab1 09bd 3046 03bd
00000110: 3392 20bc cbd8 13bc 65e2 543b aeeb 34bd
00000120: 03d6 413c db3b 6c3d 3329 543d 949c 0f3d
00000130: 786b 8dbb 8bfa 52bb 9194 8bbd c451 03bd
00000140: 78ea ce3c 8f44 c9bc e7d9 08bd ee04 91bd
00000150: d1ac 7fbd c4ce 533b 3710 6f3a d5a2 48bc
00000160: dab5 95bc cf8a 4bbc 226a ecbd de04 19bd
00000170: 0243 bfbb dad5 22bb 4f27 57bd f4a6 36bd
00000180: 3af9 d7bd c4c7 f7bc 07c4 0c3c 97e3 bcbc
00000190: cb5c ccbc b579 0abd 7410 d3bd c782 bebc
000001a0: 81ce 1bbd 3a43 29bd 21e0 f8bc 4142 53bd
000001b0: f59d 82bb 8616 473b 43ac 8c3c 886a 8a3c
000001c0: fe9c 23bb c13d 883c 4b50 463c 48d4 bd3c
000001d0: 4eb6 5bbb a8a2 7d3c 9041 b73c 4d28 933c
000001e0: 2fcf 9f3b ed86 873b c55b 5aba 3a56 08bd
000001f0: 43ea a63b 2813 d83b 6837 2e3c 87a6 8fbc
00000200: d24e 9b3c bbe9 9ebb 5665 72bc 9de5 e03a
00000210: 1361 983c f428 733c 1d74 a2bc cce6 5b3c
00000220: 7a51 263c fb98 8f3b 9bc9 9dbb 674b 21bc
00000230: b4ec 723b d7a6 843b 36ca 2ebb 7fd7 be3c
00000240: c6f4 2ebd 972f c43b 647c 00bd e14f 4ebd
00000250: 8e97 fdbc 1a18 2b3d d912 593c 82c4 263c
00000260: cd91 6d3c 1315 10bd 1221 8cbc 00df 193d
00000270: a6f7 9b3a 9f2a 8aba 9501 fabc e8e5 03bd
00000280: a35c 9ebc 0aaa 153d afd1 97bc b4cf 12bc
00000290: 038e 093c 8323 ebbc 8756 28bc 2138 4c3d
000002a0: 474f 8f3c 3cca 543c 2e8f 453b e651 25bb
000002b0: d92b cbba e682 9a3d 9521 223d 700a 483c
000002c0: d8a4 36bc 1ee6 963c 78f8 dd3c 42e0 fa3d
000002d0: 7ab9 c23d cfab ce3c 93f6 113d daad 853c
000002e0: a820 693d b96b be3d 2914 393d 4329 abbb
000002f0: 008e 02bc 71cd a83c a897 6d3b 4391 433d
00000300: 37d6 cb3c d6f8 8abb e4ea babb 8899 f5bc
00000310: b39e 733c f395 1a3d 2c37 183d dc4d d8bc
00000320: edec efbb 1972 9339 2b1d caba a553 733d
00000330: 5586 273d bed4 dbbc 6faa e5bc b44c 0ebc
00000340: e5ce d23b b38d c03b a4c4 563d 1dfe 8e3c
00000350: 9976 16ba 637a 553b 60b7 c63c cfa3 a73d
00000360: 3d9d 993d 252b 193d afe6 0d3d 2822 223d
00000370: 1a3e 183d fb50 2d3d 7516 e03c 53cf 3f3d
00000380: 114b a83c 5811 c73c a6bd 623c 5159 2c3d
00000390: 67e7 343d eade e03b 2417 ea3c 517f d2bb
000003a0: df3e c03c e39b 963c bb1c bf3c 4a3f 31bb
000003b0: c6e9 393c c5df 8db9 796d 3a3b df22 563c
000003c0: 85ae 203d ce67 403b 7f97 ce3c 1fb2 ae3c
000003d0: 27cb 5f3c c3b5 4b3d 56fc 623d 11e4 943c
000003e0: 0082 263d 813a 283d af97 463d 5aad 943d
000003f0: e547 53bd 0df7 25bd 50ed 25bc ffb0 22bb
