weights/best_outdoor.pth (torch_old, 34944 bytes, 9 tensors)

conv1.weight f4 [16, 3, 5, 5]
00000000: ab6c 61bd acaf 343d 3200 b43c 4227 70bd
00000010: 2dc6 85bc 8bdc cb3c f590 8abd 8cd6 083d
00000020: c71c 933d 742c 09bd 99ed e23b 1006 aa3d
00000030: 5d08 10bd de50 033b ed95 403d 2e8b 33bc
00000040: 4c64 0d3c 228e db3d e28c 453e 563e 47bc
00000050: fde2 d1bd 05a2 c5bc 9012 8f3d 26c8 c1be
00000060: f230 b83d b36f b73c 6e59 b03c f3a1 563d
00000070: a9c0 16bd 86a3 2a3d 76a8 583c bef9 b1bd
00000080: 9d3c 03bd db4d 26bd 19c2 82bc bb43 3f3d
00000090: c565 b8bd 1431 ed3c e6da 1dbd 5208 ba3c
000000a0: b122 9dbd 2783 84bd d6d6 543d 13df eb3d
000000b0: 0e8e 463d 2b2f b63d 6376 af3c f3b8 1e3e
000000c0: 0cf3 91be 4d25 1f3e 8663 443d 14eb 4abd
000000d0: 83fe 83bc 56c3 c43a 8fa2 b83c 7fa4 88bc
000000e0: 24c6 b83d dfef 503d fa6a c93c e7cc c83d
000000f0: be0d 3fbc 9ecc 653b af52 373c 7d11 9fbd
00000100: 02f5 5e3c b4c1 b73d 60c6 803d d41d 99bd
00000110: 38d7 d03d 71e5 d8bd 9c92 063e f490 ffbd
00000120: 53a4 5cbd 746c 0cbf 3d8b 423d 83e5 26be
00000130: 84aa b33c c949 43bf 5225 8bbd 5358 4fbe
00000140: bda1 4dbd c048 debb bc2e ba3d ad31 223e
00000150: b2f3 03be 1350 edbc 0a6f 00bd d897 db3c
00000160: 1868 b9bb 6cc5 fdbb 3bb1 313c a4ed 6b3d
00000170: 3455 c73d abee a03d 4b40 87bd 9ce9 f53d
00000180: 5d15 943d c155 a93c 8f2b 2c3e 8882 a03d
00000190: 8bba 84bd 0002 9c3d 4c85 48bf 9175 673d
000001a0: 2303 4a3d 3762 0739 8c02 8e3d 3b15 843e
000001b0: f79b 143d ea2c 333d 6439 cfbb cc04 963c
000001c0: 47bb babd 3a45 93ba 6c2a c1bc 26ca 463d
000001d0: 1402 f2bc 48aa d63d a2c2 f13c 6e1b 353c
000001e0: 0db6 0abd 297a 933d e4e0 ba3d 4c8b 823d
000001f0: 5191 8fbc cd93 1e3e f4e1 5b3d 4a3a 30bf
00000200: a56c df3c 2a68 1b3e 51cc 553d a06c dd3d
00000210: b5bb e83d 6cc9 3e3e 9c63 1d3d c12f 8b3d
00000220: 1647 a43d ba81 e13c f877 3c3d 0d4a b33b
00000230: 3627 253d 635e ca3d 4a81 9a3d bcc7 4a3d
00000240: ca64 453c c9a0 c8bd 3333 9abd 25ee debd
00000250: 281d 0bbe 5b98 84bd 61c2 57be dbe2 5f3d
00000260: 7976 1abb 01b5 5cbd a0f7 25be 335c 5cbd
00000270: 9b99 09ba e16c 323b 8034 d53d e52e 3a3c
00000280: 396f 90bd 800a 873d c87d ff3d 5d0c fc3d
00000290: ea46 70bd 3f30 00bd bc73 c7bd 3cd6 763c
000002a0: 87e1 393e daf8 85bd d90c cdbd 9e30 2bbc
000002b0: af8a a33d 582d 143e f36c d0bd 3208 c9bd
000002c0: 9dee aebd b2aa 8cbd 8f96 11bd 46d7 01be
000002d0: e1be 0dbe 4c12 08bb 05e6 2dbc 31aa 433d
000002e0: dcf2 febb 1447 eabc 61ee 82bc b923 b23d
000002f0: c2d4 633e 70f6 8dbc 7442 adbd 192b 65bd
00000300: f490 473d 3a31 f83d 587f 2fbe a076 62bd
00000310: 4ed0 7e3b c249 563d ed50 ed3d 76cc 87bd
00000320: 9700 2ebe 4269 babc eea9 903b 163d dbbb
00000330: 4ceb 263b 7262 1fbd a37a b43d 1df3 90bc
00000340: cd9b 183e beb3 a23b 5654 ca3d dab4 0f3d
00000350: 37e5 9abc fb43 8d3e f602 79bc 0ef5 3c3d
00000360: 6453 003e 56a7 903d 20ea 443d e318 b9bd
00000370: 5469 123e a994 283e 452f 723c 1399 be3c
00000380: 7abb 173d 7812 ce3d 6222 3b3d aee1 e1bd
00000390: f57a afbc 8f45 2dbd e7c0 aa3d 7239 9dbd
000003a0: 7a30 c8bd 0783 0ebe de62 b8bd 21fa 14bd
000003b0: 5814 64bd 3d60 57be ec88 5cbe 1801 14be
000003c0: c3a1 aebd d01b 2f3b d8dd 6bbe e22d 42be
000003d0: a2ec 1cbe bedf 5a3c 74ff ec3c a368 0fbe
000003e0: 1d4e ecbd 713b e5bd 51a8 debc f16b 463d
000003f0: ace6 e23d d177 813d 41e1 a53d c15b 3d3d
-0.055035274 0.044112846 0.02197275 -0.05863119 -0.01632985 0.024885437 -0.067659296 0.033407733
0.07183223 -0.03348966 0.0069252965 0.083019376 -0.035164226 0.0020037214 0.04701798 -0.010958476
0.00862987 0.10720469 0.19292024 -0.012160858 -0.10248373 -0.024125108 0.069859624 -0.37848014
0.089937106 0.02239213 0.021527018 0.05240054 -0.03680483 0.041659854 0.013223758 -0.08690213
-0.032040227 -0.040601593 -0.015961694 0.046695452 -0.09003786 0.028954066 -0.038538836 0.022709046
-0.076726325 -0.06470328 0.051962696 0.115171574 0.048475318 0.08895715 0.021418756 0.1550024
-0.28505743 0.15541573 0.047946475 -0.049540594 -0.016112572 0.0015011828 0.022538451 -0.01668
0.09022167 0.05101001 0.024587143 0.09804707 -0.011660991 0.0035064588 0.011189147 -0.077670075
0.013608219 0.08972493 0.06287837 -0.074763924 0.101973 -0.105906375 0.13141865 -0.124788195
-0.05386765 -0.54852986 0.04749607 -0.1629849 0.021931894 -0.7628446 -0.06794228 -0.20248537
-0.050203074 -0.006783575 0.09090945 0.15839262 -0.12885931 -0.028968846 -0.031355895 0.026805803
-0.005658161 -0.007744482 0.010845478 0.05759968 0.09733048 0.07858022 -0.0660406 0.12007448
0.07230637 0.020670773 0.16813491 0.07837397 -0.06480893 0.07617569 -0.78328395 0.056508604
0.049319398 0.00012911191 0.069340795 0.25797448 0.036281552 0.043744005 -0.00632398 0.018312834
-0.091177516 -0.0011235841 -0.023579799 0.048532628 -0.029542007 0.10481697 0.029511753 0.011053903
-0.033865023 0.072010346 0.09124926 0.06374225 -0.017525347 0.15486069 0.053682283 -0.6883894
0.027273485 0.15176454 0.052196804 0.10811734 0.11363927 0.18631524 0.038425073 0.06796218
0.08021371 0.027527679 0.04601285 0.005471474 0.040320598 0.09881284 0.07544191 0.049506888
0.012047956 -0.09796292 -0.07529297 -0.10885266 -0.13585341 -0.06474372 -0.21070243 0.054659706
-0.002356915 -0.053883556 -0.16207743 -0.053798866 -0.0005249024 0.0027225541 0.10410404 0.01136372
-0.07052464 0.065937996 0.12475163 0.123070456 -0.05866138 -0.03129601 -0.097388715 0.015065726
0.18152438 -0.06541605 -0.10012216 -0.010448603 0.07985436 0.14470422 -0.101770304 -0.09816016
-0.085416056 -0.06868495 -0.035543974 -0.12679777 -0.13842346 -0.002076286 -0.010613923 0.04776973
-0.007780416 -0.028598346 -0.015982809 0.0869822 0.2224913 -0.017329425 -0.084599406 -0.055949304
0.048722222 0.12118764 -0.17138422 -0.05528891 0.0038881483 0.052316435 0.11587701 -0.06630795
-0.16992413 -0.022755269 0.0044147884 -0.0066906316 0.0025469838 -0.038912244 0.088124536 -0.01769405
0.14903183 0.0049652746 0.09879367 0.035084583 -0.018908126 0.27590927 -0.01519846 0.04613214
0.12531811 0.07063167 0.04807484 -0.0903795 0.14297992 0.1646296 0.014781778 0.02326635
0.037044026 0.100621164 0.045687087 -0.11029373 -0.021420935 -0.042302664 0.083375745 -0.076769724
-0.09774871 -0.1391717 -0.090032324 -0.036371354 -0.055683464 -0.21032806 -0.21536607 -0.14453542
-0.08526947 0.0026719458 -0.23033845 -0.18962815 -0.15324643 0.013359008 0.028930403 -0.1400476
-0.115383364 -0.11192978 -0.027179869 0.048442785 0.110791534 0.06321681 0.080996044 0.04623008

conv1.bias f4 [16]
00000000: bad0 41be edec 48be 17d4 f1bd b5c1 2ebd
00000010: edbd b83d 483b 81be 5edb 43bc ca77 92be
00000020: 0ba6 b23d 2d1b 86be b8df e2bc 2503 fdbe
00000030: 20da c83d 3daa abbd 4e5b 82bc 2742 9ebc
-0.18927279 -0.1962163 -0.11808031 -0.042665202 0.090206005 -0.2524054 -0.011954157 -0.28607017
0.087230764 -0.26192608 -0.027694568 -0.49416462 0.09807229 -0.0838208 -0.015912678 -0.019318653

conv2.weight f4 [16, 4, 3, 3]
00000000: 3aaa c8bf 9ca6 0fc0 53ba efbf adf5 cfbf
00000010: d075 dbbf 3e99 ddbf 3518 84bf 53f2 5cbf
00000020: d3d1 71bf fb10 08c0 7532 ecbf c7ac febf
00000030: 0df5 edbf 3ebe c3bf 2a42 02c0 b038 c5bf
00000040: 68f2 ebbf 46f7 03c0 7459 303d 8803 0c3c
00000050: 09bc 1e39 aa2d 0f3d dd8f c63d 7f27 b9bc
00000060: 7cc7 0b3c ea7e 36bc da5b f7bc dc29 afbd
00000070: e8ee a2bd 8ca7 b9ba 1c3b 19bd da5e b5bc
00000080: 8ea8 b4bc c873 993b 4899 5c3c f158 f33c
00000090: 9f47 81bd 685b c1bc b16f a1bc 8970 55bd
000000a0: 0048 1cbc bfec b3bc 6e6b 1abd b70a 10bd
000000b0: f273 8abd 332c acbe 4448 77be e648 4cbe
000000c0: 8169 abbd fa3f 18bd 161d 80be 4646 86be
000000d0: 542c 4fbe e501 ffbd 5069 043c 3fe4 47bd
000000e0: 6fcc 1bbd 78e7 98bb 7049 87bd 6ddc 9abd
000000f0: a704 17bc bfb3 48bd 30f4 1bbd 8574 6ebd
00000100: 7a32 8c3d 1b0a 6b3c 5907 373d 6ff4 bfbc
00000110: 2a47 5cbc fe6b 03bc b044 9b3c 4a5b 173d
00000120: 527a 91be a8fd c6bc 0c5a 543c 7957 c1bd
00000130: 3eed a6bd f4ae 003d d5a8 4ebf 0ab4 98be
00000140: c2a3 df3b e681 3cbe dd20 6fbe b8ac 11bf
00000150: a8f0 8f3e 0a8b 42be deea 213d b588 b3bd
00000160: 85c8 db3d 57e3 64be c310 81be a8d6 a23e
00000170: f5f5 62bc ab02 ebbe 647f 9bbe 0979 e43d
00000180: f0e2 283c 13a8 d5be 6c73 edbd 71cd 1fbe
00000190: 6db3 29be a2d6 f1be 6a2e af3c 79cc 893e
000001a0: ee8f 313e 6aa4 3cbe 820d febc 6ecb 0e3e
000001b0: 6db9 95bd a086 7e3c 60b9 45be 2cbc 853c
000001c0: 77de 143d 4d47 32be e2a1 07be f505 3abe
000001d0: fb0f cfbd bbd1 c2bd 6114 f9bc bea4 00bd
000001e0: b478 763d 6d4d 96bc a764 e6bc 04c4 c1bc
000001f0: de3a cb3d 2eb4 cebd 129d 28be 1e42 d93b
00000200: 2e81 b63d 0387 febd 4a7a febd 0934 08be
00000210: 760b 27be b17f 323c 6dfb e1bb 9eb9 823d
00000220: 43c0 e03d c56d 213d bd2f d9bd f446 4ebe
00000230: aa36 f93c ec93 b2bd 5056 fa3d 5fa8 253d
00000240: 287b a33d 4f9b a53d 187f 7cbe adc9 d63c
00000250: be3e 96bd eff7 06bd 5488 60be a22e 51bd
00000260: 6515 02be b474 29bf 8ade 0fbf c6b1 2fbe
00000270: 43bb 3dbf 452d 023d a992 a0bd 84ac 69be
00000280: f12e b3be 4c03 f3be 40a4 b0be 430e 1abc
00000290: 46aa 2a3d 65a0 9ab9 84e9 a93b 9be4 343e
000002a0: 8fd5 f93d e33a d13d 3dbf 613e ea9e 64be
000002b0: 7ab9 a7bc ce38 3f3e 87eb 153b fa43 3f3d
000002c0: c00c be3d b3f2 3abe 5d0d 2f3e cea1 f3bc
000002d0: a4e7 56bd 2ceb 37be 54c6 293d 7a65 a3bc
000002e0: 4c4f 273c 1725 cabd a82b 5abd 8a4f 773c
000002f0: 718b 0dbe e0c0 77be b9ab dfbc 100a aebd
00000300: 27b1 4bbe 3dbf 303c f295 94bd 1344 233d
00000310: 2ab3 d73c a885 e93b 589a b6bd 34ac 1cbc
00000320: c3c2 b43d 1e69 bbbd d5fc d1bb a466 56be
00000330: 42bc 97bd 5bfa 3cba a323 f3bd 6236 3b3c
00000340: 38f7 efbd e93f 4cbe 959f f7bd b5a5 b1bd
00000350: c9c3 40be 6e2d a1bd 793e 5abe f63d d9bd
00000360: 9492 d53d 59a6 183e 4ee9 e1bd b443 ee3d
00000370: 2af2 86b9 9e7a 84bd c7b5 343e dd85 633b
00000380: b42e 943c 9558 27be c7d3 91bc 9582 cbbc
00000390: b676 e1bd 7215 f6bc 4f87 e2bd c201 80be
000003a0: 44e1 03bd c5b0 a0bc 7527 52bd 3501 873d
000003b0: df26 eb3c ab14 09be f0b9 7fbe a9e5 aabd
000003c0: b2eb 30be 6c85 c03d a1e6 04bd 3bfc 253e
000003d0: c521 933d 9fcc 6ebd 7e96 d83d fc7f afbd
000003e0: 3cf9 67bd 6d72 743e 51af 2e3e b480 a4bd
000003f0: 5c48 21bd 9c0b 3dbe 7d89 06be 50cc a5bd
-1.5676949 -2.244544 -1.8728737 -1.6246849 -1.7145329 -1.7312391 -1.0319887 -0.8630726
-0.9446079 -2.1260364 -1.8452898 -1.9896477 -1.8590409 -1.5292432 -2.0352883 -1.5407925
-1.8433352 -2.0619674 0.04305406 0.008545764 0.00015138103 0.034955658 0.096954085 -0.022601841
0.0085314475 -0.011138657 -0.030195165 -0.08552906 -0.07955724 -0.0014164313 -0.037409887 -0.022139955
-0.02205303 0.0046829917 0.0134642795 0.029705497 -0.06312489 -0.023603156 -0.019706579 -0.052109275
-0.0095386505 -0.021963475 -0.03770011 -0.03516647 -0.06760396 -0.3362747 -0.24148661 -0.19949684
-0.08369733 -0.037170388 -0.2502219 -0.2622549 -0.20231754 -0.12451533 0.008081749 -0.048801657
-0.03803676 -0.004666265 -0.06605804 -0.07561574 -0.009217418 -0.048999544 -0.038074672 -0.05821659
0.06845565 0.014345671 0.04468474 -0.023431985 -0.013444701 -0.008021353 0.018953651 0.036952294
-0.28413635 -0.024290875 0.012960922 -0.09440512 -0.08150719 0.03141685 -0.8072637 -0.2982486
0.0068249414 -0.18408927 -0.2335238 -0.5690417 0.28113294 -0.18998352 0.039530627 -0.08766309
0.107316054 -0.22352348 -0.252081 0.31804395 -0.013852586 -0.45900473 -0.3037063 0.11155898
0.010308012 -0.41729793 -0.115942806 -0.15605713 -0.16572352 -0.47234064 0.021384437 0.26913813
0.17340061 -0.18422094 -0.0310123 0.1394479 -0.07310758 0.015535027 -0.19308996 0.016325079
0.03634497 -0.17410012 -0.13245347 -0.18166335 -0.1011047 -0.09512659 -0.030405225 -0.03140711
0.060173705 -0.018347466 -0.028124167 -0.023653038 0.099233374 -0.1009296 -0.16466168 0.0066301962
0.08911358 -0.12428095 -0.124256685 -0.133011 -0.16312966 0.010894702 -0.0068964274 0.0638306
0.10974171 0.039411325 -0.106048085 -0.20144254 0.030421574 -0.0871962 0.12223494 0.040443774
0.079824746 0.080862634 -0.24657857 0.026219213 -0.07336186 -0.03295129 -0.21927005 -0.051069863
-0.12703474 -0.661937 -0.5619894 -0.17157659 -0.74113864 0.031781454 -0.07840473 -0.22819716
-0.3499675 -0.47463453 -0.34500313 -0.009402814 0.04166629 -0.00029492672 0.005185308 0.17665331
0.12198936 0.1021631 0.22045608 -0.22326246 -0.020474184 0.18674013 0.002287598 0.046695687
0.092797756 -0.18256645 0.17094941 -0.02974024 -0.052467003 -0.17960805 0.041448906 -0.019945849
0.010211777 -0.098703556 -0.05326429 0.015094647 -0.13822724 -0.2419467 -0.027303563 -0.08498013
-0.19891797 0.010787782 -0.07255162 0.039859843 0.02633055 0.007126529 -0.089161575 -0.009562541
0.0882621 -0.09150909 -0.0064083138 -0.20937592 -0.07408954 -0.0007208937 -0.118720315 0.01142654
-0.11717075 -0.19946255 -0.12090985 -0.08674184 -0.18824686 -0.07869993 -0.21312894 -0.10607521
0.10428348 0.14907207 -0.110308275 0.11634007 -0.00025738898 -0.064687 0.17647468 0.003471724
0.018088676 -0.16342385 -0.017801179 -0.02484254 -0.110089704 -0.030039523 -0.11060964 -0.2500134
-0.032197252 -0.01961554 -0.05130716 0.06592027 0.028705059 -0.1338679 -0.24973273 -0.083445854
-0.1727741 0.09400448 -0.032446507 0.162095 0.071841754 -0.05830061 0.10575579 -0.08569333
-0.056634173 0.23871775 0.17059065 -0.08032361 -0.039375648 -0.1846146 -0.13138385 -0.0809561

conv2.bias f4 [16]
00000000: 9ed6 3d3d 9d4a a03d 14e2 f738 bff9 febd
00000010: 5185 21be 2393 9ebd 0a09 a3be 6e42 13be
00000020: d7b0 6cbe 1cae b9bd 5abb 99be c0c6 873e
00000030: f005 3bbd 0791 963c e09f ebbd 3b97 88be
0.046347253 0.07826731 0.00011819988 -0.12449979 -0.15773512 -0.07742908 -0.31842834 -0.1438081
-0.23114334 -0.09066412 -0.3002575 0.26518822 -0.04565996 0.018379701 -0.11505103 -0.2667788

conv3.weight f4 [16, 4, 5, 5]
00000000: f760 393d 3a83 323d fd9b acbd 6cfe 57bd
00000010: adb7 973d ba93 fe3c f2e9 8b3d 929c 95bd
00000020: 2921 54bd e481 043d bddc 573e b11b 383e
00000030: 66c0 333d b2bb 3e3d d5dd fd3d f2a2 2a3d
00000040: fe0a 36be 9fd6 3d3b 33b7 e9bd 40bb 773e
00000050: 3346 86be 3796 96be f9d6 fbbe 882d ecbe
00000060: b65c cabe ad66 acbd 311b b63b 7462 873d
00000070: 7533 83be 2f9e eabb 9a9e bfbd d29b 1abe
00000080: 78bc 9cbd 3de8 1abe 362b 00be 86ba 8bbd
00000090: 6168 15be 6529 7ebe 3e1e 88be f0fa 91be
000000a0: bf1a 11be 1fb6 ddbd 3690 5fbe 9d7c 09bf
000000b0: 2a52 80bd e06a 1fbe bb67 96be 588c 8ebe
000000c0: a600 43be caf7 35be 81f9 90bd 48ee f4bc
000000d0: 0cfa 2d3d cb0f 9ebd 8208 823d a76e 273c
000000e0: ba3f 263d 9541 afbd 39b8 d8bd e598 0cbe
000000f0: cac6 0c3e 8839 a4bd d0ee 283e b87c a6bd
00000100: f3ba 823d 09b8 2d3d 3cdf fabd f469 acbe
00000110: 0527 42be b7b1 7abd e8bb a3be 67c9 95be
00000120: 7e3a c4be 061d 8cbe 72c9 84be a156 c5bd
00000130: 2a32 33bd 4c88 de3c 89ad 1cbd c686 c8bd
00000140: cc51 11bb 5ce2 993d fb37 453e 0d21 453d
00000150: 74c6 d33d 5ad1 bc3d 33c0 473e 5584 453e
00000160: 22ab 163e 7cec c33d 1197 163c f56f fdba
00000170: 03e6 093e 3bb6 0dbd 3d8b bebd 3ad4 a9bd
00000180: 59ba 4b3c c326 d0bd 8f60 14be 4961 08be
00000190: 190c a4bd 1de9 763d 9519 95bc b153 2ebe
000001a0: 037f 98bd b8e2 f13c a5ac d23d ccb6 743d
000001b0: b0dc 2ebe 45bb 04bd 5693 1a3e 60c8 f9bd
000001c0: 7c34 eebb 3795 cb3c a4d2 25be d9eb 1d3d
000001d0: 99ad 2bbc 502e 11bd 0585 633e 2d3c 45bd
000001e0: 09ee da3d 5933 1cbc f88f b93c 8c6e 073e
000001f0: 1783 90bd 8c5f b0bc 1ae1 a3bd f7cb 9e3d
00000200: 160b 9cbd 72b5 9bbc 8a1b 4cbd cb24 b43d
00000210: 5ed0 b8bc 1cc8 2a3d 43e7 a4bd 6bb4 173c
00000220: 4440 253a b357 8d3c a863 4e3d bef2 3abc
00000230: ded9 05be 366a 2abd bdc8 2b3d b6fa 0ebd
00000240: 261b 503d 5916 a13d 1ff8 173d e158 13be
00000250: 64a4 25bd 3604 b6bb e909 b5bd d78c afbd
00000260: c414 43be 5aa6 a3bd 9bc6 c5bd cd7b f5bc
00000270: 5c4c 963d bace ffbc e220 b13c 436e 10bd
00000280: 0907 07bd e9f8 283d f790 e43c 0abb 38bd
00000290: 81db 7bbd da51 533c e5fc 11bb 6f6b cebc
000002a0: fdf1 6b3c 0a1b ecbd be30 bdbb b26b 853c
000002b0: 0ac9 f7bb 115d e53d fb73 88bc dc86 863a
000002c0: e4a1 b8bd 7921 e2bd 8f68 6f3d a25f ca3c
000002d0: f7d4 89bd 05f8 733d e0cc 4e3d 1c37 46bd
000002e0: 02fe cb3d a2d8 15bd 9948 2fbd 3e13 e03d
000002f0: 693b 1d3d 6ff1 b53d 2992 98bd fae5 4fbd
00000300: c9e8 273d 1610 1a3d 836e 173d ef19 4fbd
00000310: db5b e9bd 8370 493d 8d0f 113e 7c0d 863d
00000320: 8dc0 d63a 3794 883b 0d0f 02bb 9ec5 42ba
00000330: 6c43 9eba 57c1 7eba aae3 e3b9 6ce3 93bb
00000340: 7468 af3b fdf3 b2b8 abea 413b e463 53ba
00000350: 15fc 983a f1d6 33bb f27c f0bb 3b83 f0bb
00000360: d9a2 643b 8f00 49bb 7d04 c63a e38c 4a3b
00000370: f2c1 6b3b 4865 453a 2b2a b33b f5be 303c
00000380: c17b 2d3e 95e9 a2ba 1477 c3ba 7378 5db9
00000390: a250 bfba 633d 1fbb 5977 0237 af3c 8aba
000003a0: 2f57 1f3b 9b8b 8bb9 8e43 f43a 5055 9a3a
000003b0: dbc4 db3a 6ff7 313b 6cd0 ebba b8d0 6539
000003c0: 65ce f3ba 13a3 02b9 b4a4 c1ba 7b9e a9ba
000003d0: 9544 0dbb 2beb ae3a 2d68 21ba b892 0439
000003e0: 09e5 00bc 1bbc b03b 9e3d a83a 300b f33a
000003f0: 16c0 583a 2eeb 383a 03e1 1bb9 788c ddba
0.04525849 0.04358218 -0.0842819 -0.05273287 0.0740808 0.0310763 0.06831731 -0.07305254
-0.051789436 0.032350436 0.21080299 0.17979313 0.043884657 0.04656572 0.12395827 0.041659303
-0.1777763 0.0028967035 -0.114118956 0.24192524 -0.26225433 -0.2941148 -0.4918745 -0.46128488
-0.39523858 -0.08418021 0.0055574407 0.06610575 -0.25625196 -0.0071599702 -0.09356423 -0.15098503
-0.07653135 -0.15127654 -0.12516484 -0.06822686 -0.14590599 -0.24820478 -0.26585573 -0.28511763
-0.14170359 -0.108257525 -0.21832356 -0.5370577 -0.062656716 -0.15568113 -0.29376015 -0.2784145
-0.19043216 -0.17770305 -0.07078839 -0.029898778 0.04247479 -0.07717856 0.06349279 0.010219253
0.040588118 -0.08557431 -0.10582013 -0.137302 0.13747707 -0.08018786 0.1649735 -0.08129257
0.06383314 0.042411838 -0.1224961 -0.33674586 -0.18960197 -0.06120464 -0.319793 -0.2925522
-0.38325876 -0.27365893 -0.2593494 -0.09635664 -0.043749012 0.0271646 -0.038251434 -0.09791331
-0.0022174 0.07513878 0.19259636 0.048127223 0.10340586 0.09219618 0.19506912 0.19288762
0.1471372 0.0956659 0.0091912905 -0.0019335734 0.13466649 -0.034597617 -0.09303901 -0.08292432
0.012434565 -0.10163643 -0.14489959 -0.13318361 -0.0801012 0.060280908 -0.018200675 -0.17024113
-0.074461006 0.029527053 0.102868356 0.05974464 -0.17076373 -0.032405157 0.15095267 -0.121964216
-0.00726944 0.024851425 -0.16193634 0.038555 -0.010478401 -0.035444558 0.22218712 -0.04815309
0.10689933 -0.009533727 0.022651657 0.13225764 -0.070562534 -0.021529935 -0.08001919 0.07753747
-0.07619302 -0.019007418 -0.04983095 0.0879608 -0.022560295 0.041694745 -0.08051922 0.009259324
0.0006303827 0.017253732 0.05038801 -0.011410413 -0.13071391 -0.041605197 0.041939486 -0.034907065
0.05080714 0.078655906 0.03710186 -0.14389373 -0.04043998 -0.005554701 -0.08839781 -0.08571785
-0.1905089 -0.079907134 -0.096570216 -0.02996626 0.07338783 -0.031226505 0.021622125 -0.035261404
-0.032965694 0.041253004 0.027901156 -0.04510025 -0.061488632 0.012897933 -0.002227598 -0.025197713
0.014400956 -0.11528595 -0.005773633 0.016286705 -0.0075618075 0.11199392 -0.016656866 0.001026358
-0.09015253 -0.11041541 0.058449324 0.024703804 -0.06730073 0.0595627 0.050488353 -0.0483924
0.099605575 -0.03658355 -0.042793844 0.1094117 0.038386736 0.088839404 -0.07449753 -0.050756432
0.040993486 0.037612997 0.036970627 -0.05056184 -0.11394473 0.049179565 0.14166088 0.06545541
0.0016384289 0.004168059 -0.0019845397 -0.000742996 -0.0012074537 -0.0009718141 -0.00043466437 -0.004513195
0.005353028 -8.533148e-05 0.0029589336 -0.0008063896 0.0011671806 -0.0027441347 -0.0073391134 -0.0073398626
0.0034887104 -0.00306705 0.0015107539 0.003090673 0.0035973755 0.00075300457 0.0054676733 0.010787715
0.1694174 -0.0012429232 -0.0014912807 -0.00021121073 -0.0014596174 -0.0024298064 7.776392e-06 -0.001054665
0.002431344 -0.0002661616 0.0018635856 0.0011774693 0.0016767042 0.0027155539 -0.0017991192 0.00021916896
-0.0018600939 -0.00012458516 -0.0014773817 -0.0012940908 -0.002155577 0.0013345232 -0.0006157186 0.00012643158
-0.007867106 0.0053935177 0.0012835746 0.0018542763 0.0008268369 0.00070540875 -0.00014865775 -0.0016902825

conv3.bias f4 [16]
00000000: b21d 39be ac66 c0bc c748 3ebb bbe8 45bb
00000010: b20b 3fbc 5f8b 50be ef90 3d3d 7dae 1bbb
00000020: 6adf 06be 26c7 20bc b1e6 11be 3686 953d
00000030: f4e6 6c3c 9878 57bc a37f 4b3d f478 f83d
-0.18077734 -0.023486458 -0.0029035078 -0.0030198533 -0.011660503 -0.20365666 0.046280798 -0.0023755126
-0.13171163 -0.009813106 -0.14248158 0.07300989 0.01445936 -0.01315131 0.04968227 0.12132445

conv4.weight f4 [16, 4, 7, 7]
00000000: 2e3e 4cbe e37b ebbe 95d9 bdbe d8fa 0bbf
00000010: f08b fdbe 87df 3abf de68 4ebf 4020 c4be
00000020: 4194 d63d d795 f93e 289b e93e 63b8 863d
00000030: 66cf 88be 1c9e 7abe 79f3 3bbe 941f c83d
00000040: 0175 a1bd 15d7 b5be 436e abbe ddbb b9bc
00000050: 58ca 183e 8a4f 7f3e b037 e8be a2d9 48be
00000060: 0aec a4bd 0f1d 953d f58b 2ebe 549d c2bc
00000070: 625e de3d e77a 0abd 2f65 b2be 3f45 223e
00000080: edf3 273f da50 ac3c 1933 6dbe fea5 3ebe
00000090: 9d24 b2bd 9e98 04be 6943 c43d 6d97 363e
000000a0: d058 6bbe 489e 96be 78c5 e93c 12c1 06bd
000000b0: 93bb debe 0cbf a73d c623 08bd 4412 543d
000000c0: a9c5 683e 0cf5 ecbd 0d94 99bd 1fc6 32be
000000d0: 6fb0 96be 9359 60bc 047c 5fbd 8969 8fbe
000000e0: b11b 35be 495c 6fbe 83e2 47bd 7eb5 4abe
000000f0: 9be7 0fbe 5562 91bd ae74 a5be 3345 f6be
00000100: e46f 78be d518 863d d1f7 433e 31d9 43be
00000110: 8f76 00be ea46 b3be b2d4 3abf 01f5 56be
00000120: d8a7 f8be 3957 eebe 2a5e 1e3d 6b26 543e
00000130: 1a97 99be 0b2f 11be 2c45 5a3e cbe0 62be
00000140: cac9 08bf a0d7 60be 6882 683e 3518 02bf
00000150: 1e62 7cbe c53b a0be 69d8 84be 4934 80be
00000160: a878 02bf 38f2 49be 9ae7 54bd 315c d03c
00000170: db19 3a3e 3de3 2dbe 7502 293d 1faa 5c3d
00000180: 297e 26be 28e8 78be b2a3 37bc fd88 633d
00000190: e74b 003e 4d57 253d 346f 15bd 5157 ccbd
000001a0: 80fd a5bd bed8 0dbd cfc2 f2bd c65b e4bd
000001b0: 8d95 50bd 3a6d 2b3e c9e4 193e 15d6 cc3d
000001c0: 966b 9b3d 54ea a83d 314e e1bc 3c7a b3bd
000001d0: 27e7 c4bd b7fc b0bc 6581 46be f88c 0f3d
000001e0: 3a3c 243e e31c f63c a298 f63b 83ce 18be
000001f0: d1b3 2cbe 88bb f6bd 3647 6bbe 6414 3ebe
00000200: 2aaa bd3c 04e4 963e f484 5e3e 9974 2b3d
00000210: 601c d53d 9ff7 773d ffd6 623d 9867 21be
00000220: 1a6f 90be 6310 23be 9a1d 47bb c43f 2ebd
00000230: 2799 cfbc 23d0 363c 072a 0abc 55f6 e83d
00000240: a0c8 2ebc 20e1 d83c 68cf 2dbd 2598 793c
00000250: 1827 abbd d469 e1bd 4ed0 04be 9d93 85bd
00000260: ad93 8cbd b836 953d c712 17bd ad9a 0d3d
00000270: 2d0c 473d e051 463c bed9 53bd 4f87 31bc
00000280: 16c1 d73c e72d 27bd 99bb a0bd 19bb fbbd
00000290: e2ac 76bd d220 55bd b2a7 8fbc 99f1 b63c
000002a0: ad9a b83d 74ec 4f3d e535 de3c 9e0d 043c
000002b0: 277b 1bbd 24e3 1f3d b479 b43d d3f2 20ba
000002c0: 0edb a13b e90a 86bd 74a8 73bc 8069 ccbc
000002d0: 4eeb 873d 7add cbbc 6dd7 17be ef61 b83c
000002e0: 6d04 38bd 7308 efbc 1c9b 99bd e207 57bc
000002f0: 2242 d83c 1bcf a83d bcb7 cc3d d8b9 19bd
00000300: a908 813d c6f2 443c e87f 8d3c 30bb 29bd
00000310: a27a 9a3b 2804 973c 8fc0 86bd 3da5 6c3c
00000320: 027d 57bd 7720 f93c a2ca 26bd 241d 453d
00000330: 69b0 b2bd 858f 903c 3e7a 9bbd 259c b3ba
00000340: c5d7 b3bd 034b 77bd c2c0 2d3d b161 b1bd
00000350: 0133 b1bc be94 1a3c b4e9 e7bc 687b b8bc
00000360: 723f 753c 1b72 8f3c 01b5 2cbc d948 c7bc
00000370: fd60 303d b868 f03c 4457 a0bc b48a c9bd
00000380: 7599 d6bd 0494 c6bd ff5e a93b 5959 28bd
00000390: 10ac b03c c187 e5bd 6042 d2bd 2945 9fbd
000003a0: 3719 8d3c c746 86bd 4aba 3ebc fd39 82bd
000003b0: 7e59 afbb 390c 2bba 5ca9 293c faaf 9cbd
000003c0: 24e0 c1bd 24f5 a5bd 32f5 2cbb f8e4 44bc
000003d0: 7e0a b3bd b855 c3bc 5fb8 dfbb ae46 06bd
000003e0: 067e 38bd 4163 92bd 6741 0ebe 2af2 9abd
000003f0: f178 213d e812 9dbb 2dd2 aabc 8eb4 a1bd
-0.19945595 -0.45992956 -0.37080064 -0.5467963 -0.49520826 -0.72997326 -0.80628765 -0.38305855
0.10477496 0.4874713 0.45626187 0.06578138 -0.26720732 -0.24474376 -0.18354596 0.09771648
-0.07883645 -0.35515657 -0.3348256 -0.022672588 0.14920938 0.24932685 -0.45354986 -0.1961427
-0.080528334 0.07280933 -0.17045577 -0.02375666 0.10857846 -0.033808615 -0.34842822 0.15846728
0.65606576 0.021034647 -0.23164023 -0.18618008 -0.0869839 -0.12948844 0.0958317 0.17831202
-0.22983098 -0.29417634 0.028536543 -0.03289897 -0.43502483 0.08190736 -0.03323724 0.051775232
0.22731651 -0.115701765 -0.074989416 -0.1745839 -0.29431483 -0.013693231 -0.05456163 -0.28010204
-0.17686345 -0.23375048 -0.048800003 -0.19795796 -0.14053194 -0.070988335 -0.32315582 -0.4809967
-0.24261433 0.06547705 0.19137503 -0.1912582 -0.12545227 -0.3501504 -0.729808 -0.20991899
-0.48565555 -0.4655092 0.03866402 0.2071778 -0.29998094 -0.14178102 0.2131545 -0.22156064
-0.53432906 -0.21957254 0.22705996 -0.50818187 -0.24646804 -0.312956 -0.25946358 -0.2503989
-0.50965357 -0.19721305 -0.051978685 0.025434585 0.18173926 -0.16981216 0.04126211 0.053873178
-0.16259064 -0.2430731 -0.011208462 0.055550564 0.12528954 0.04036646 -0.036483005 -0.09977592
-0.08104992 -0.03463053 -0.11853563 -0.11150317 -0.050923873 0.16740885 0.15028681 0.100017704
0.0758888 0.082478195 -0.027503105 -0.08763549 -0.09614401 -0.021604879 -0.19385298 0.035046548
0.160386 0.030043071 0.0075255195 -0.14922528 -0.1686547 -0.120474875 -0.22976384 -0.18562466
0.02315243 0.29470837 0.21730405 0.041859243 0.10405803 0.060538884 0.055380818 -0.15762174
-0.28209764 -0.1592422 -0.0030382634 -0.04254128 -0.025341583 0.011158022 -0.008432872 0.11375109
-0.01066795 0.026474535 -0.042434126 0.015234028 -0.08357066 -0.11006513 -0.12970087 -0.065222956
-0.068641044 0.072858274 -0.03688314 0.03457134 0.048595596 0.012104481 -0.051721327 -0.010835483
0.026337188 -0.04081526 -0.078482814 -0.122915454 -0.060223468 -0.052033253 -0.017536018 0.022332
0.09013877 0.05076261 0.027125308 0.008059887 -0.037959244 0.039034978 0.088122755 -0.0006139699
0.0049394434 -0.0654505 -0.014871705 -0.02495265 0.06636678 -0.024885882 -0.14828272 0.022507636
-0.044926096 -0.029178834 -0.07500288 -0.013124438 0.026398722 0.08242627 0.09995982 -0.03753075
0.0630048 0.012020772 0.017272905 -0.04143828 0.004714326 0.018434599 -0.065796964 0.014443693
-0.05260945 0.030410988 -0.04072059 0.048123494 -0.08725054 0.01764656 -0.07591675 -0.0013703151
-0.08781389 -0.06037427 0.042420156 -0.08661211 -0.021630766 0.009434877 -0.02830968 -0.022519782
0.01496874 0.017510464 -0.010541202 -0.024326729 0.043061245 0.029346809 -0.019572861 -0.09840909
-0.10478488 -0.096962005 0.005168795 -0.041100834 0.02156642 -0.11207534 -0.10266566 -0.07776863
0.017223937 -0.065564685 -0.011641094 -0.06358717 -0.0053512445 -0.00065249536 0.01035532 -0.07650752
-0.094665796 -0.081033975 -0.0026391265 -0.012017481 -0.087422356 -0.023844585 -0.0068273987 -0.03278225
-0.04504206 -0.071478374 -0.13892137 -0.075657204 0.03942198 -0.0047935136 -0.020852173 -0.07895766

conv4.bias f4 [16]
00000000: 36b1 033c a4dc 6abd 0375 923c 7617 973b
00000010: 3b6a 37bb f9f0 06bc 723f f7bc 2357 fcbc
00000020: 01a9 f8bd 183e b8bd a62c a4bd 1d37 12bb
00000030: be31 d33d b15b c9bd 9e2d bdbc 5df7 b4bc
0.008037856 -0.057339326 0.017878061 0.004610951 -0.0027986902 -0.008236163 -0.03018162 -0.030803269
-0.1214161 -0.089962184 -0.080163285 -0.0022310682 0.10312222 -0.09831942 -0.023093041 -0.022090608

conv5.weight f4 [1, 48, 6, 6]
00000000: 5c63 383d cac5 063d bfed 283c 3cd2 b43c
00000010: c8fd f93c 3f2b 723d 65f8 c13c b7e9 6d3c
00000020: 5226 35bc e043 a3ba eed2 923c 88d2 9e3c
00000030: 8127 803c 8c44 edba 97e3 813c 2ec0 77bc
00000040: 651c 2b3b 6db2 2b3d f170 883c 36b6 993b
00000050: f8ac 3bbc 8fe3 9f3c 0589 1c3b 4141 013d
00000060: a723 a13c 3fe4 c63c c144 613c b963 ca3a
00000070: 2a59 0bbb cd9a 5e3d d783 e83c b0f3 2f3c
00000080: 44e2 943c 922c ce3c e819 9a3c 5837 363d
00000090: 01a1 183d a69a 0a3d c6aa 8d38 3392 e13c
000000a0: 9c17 303d 6125 9f3c 438d 843b 5510 dd3c
000000b0: 83e8 d33c b9db fabb 3973 e33c eef3 903c
000000c0: cc10 0a3c dea2 bc3c 5901 ecbb a49a 0ab9
000000d0: 229b 373a 8c94 553c 9c82 003d 1bda bd3c
000000e0: 8f63 8d3c f808 823b bd2a 2f3c 8705 8c3c
000000f0: 251b a43c 00db d1bb e144 343b 21a1 9d3c
00000100: 2f11 953c cd0e 143d 12dc 333d f02a 5a3b
00000110: 4b2d 993c 9689 773c f141 c73c 166b ad3c
00000120: f144 d13c 82d9 253c aa9e c43c 29c0 fc3b
00000130: b46f 803b 05c5 263d ad33 b33b ae33 8cba
00000140: aa3a 41bb 3310 1fbc 6e9a 0abc 890e 333c
00000150: fb99 2b3b a5f6 4aba 3434 c73b 0721 acbb
00000160: 2655 07bc 20c3 743b 9c4a 8e3b 41c8 37bc
00000170: 78f8 08bb b82e 2a3b cfd4 1cbc 654c fa3b
00000180: e033 1c3c f701 7cbc fda9 15bc a343 3c3b
00000190: b8c1 48bc 1fba 563c 2d28 a63d e320 f93b
000001a0: 2cbd 723c 1594 6aba c6cb a83c 3c4b a23d
000001b0: b8a7 63bc 29cf 47bb e8be 293c 876e 123b
000001c0: 7c13 bf3c 784f 3f3c c148 dcbc 3c9f 45bc
000001d0: 90de 56ba 2fd0 9b3c 0fc6 15bb 17a3 0dbc
000001e0: bf26 f5bb 3fa3 27bc 2bcc cb3c 9cbd d0bb
000001f0: 7315 a33b 2605 8f3c c6ba c6bc b7e8 473b
00000200: c86e c73c 20e8 72bc 0100 8d3c 9c14 7d3b
00000210: 3a12 8bbc fe80 74bc e254 2dbc e495 183a
00000220: 04d9 663c c4a7 1a3c f6cc 39bc 359f b2ba
00000230: a54a eb3c f4c7 8cbc 2709 1ebb e14a 65bc
00000240: ad2b ae3c 390f 8abc 14cc 753c 6b92 a33c
00000250: 4e35 c3bb e1b2 193d f67c 7b3d 1acd 2b3b
00000260: f6b6 983c e59e 3bbc c82d 843c de78 523d
00000270: 4f9f 113d 84ed 04bc e0ed 0fbc 9cb4 ff3b
00000280: 702d 85bc d33a c93c 548f b53c 7712 10b9
00000290: bfe2 693c 50a8 a7bb d16f 48bc d71f a73c
000002a0: 62c6 9f3c bb14 64bc 223a 05bb 494d 0abc
000002b0: 0e18 2abc 9149 193c 6387 d63c 0f06 7eba
000002c0: 780b 593c 675f 943c 3227 0abc bd8e 873d
000002d0: bc47 2c3c 2728 55bb e883 1cbd 28a5 0cbd
000002e0: 7466 89b8 59f6 163a d0e4 debc 5004 fcbc
000002f0: 9915 b1bc 2297 d6bc 16b1 81bb a6a3 97bc
00000300: 1323 5bbc 09de 2dbc 6fe4 06bd 3bad cfbc
00000310: 0c2a dabc 8bd1 813b e130 d8bb 394c acbc
00000320: f62b 86bc 5342 c83a 4bc0 0ebd 028b 12bc
00000330: 5290 ad39 4904 02bd fc9c 0ebd ca39 09bc
00000340: 9c6b 25bd 273a a5bc 5b90 1ebc 1feb bc3b
00000350: e2ac b9bc 26de cebc f9fb 55bc d208 88ba
00000360: 9702 26bd b2c6 cabc 50ff 20bd c397 30bd
00000370: 5906 49bd 72ab 4bbd 108c 1fbd 3087 8bbc
00000380: bf7d 9a3c c483 7f3c a723 a8bb 8791 a2bc
00000390: b428 52bc 1e16 283c dbd3 413b 016a f23b
000003a0: 6dc7 813b afca 30bc 62d4 0dbd 9fb0 113a
000003b0: e633 433c f0f1 473c c357 843c 8c14 eabc
000003c0: 4fb9 81bc 024e f5bb c66d d63a 0500 db3b
000003d0: 6104 f3ba 461f 773b b362 70bd e605 d2ba
000003e0: e742 79bc 6aa8 34bc 355b bbbc c58b 48bd
000003f0: 7f72 243a f981 ccb9 7748 8fbb 075b 57bc
0.04501663 0.03290347 0.010310589 0.022072904 0.03051652 0.059123274 0.023678014 0.014521054
-0.0110565 -0.0012456141 0.017922845 0.019387498 0.015643837 -0.0018102094 0.015855594 -0.015121503
0.0026109454 0.041918207 0.016655417 0.0046909107 -0.011454813 0.019517688 0.002388538 0.03155637
0.01967032 0.024278758 0.013749302 0.0015441097 -0.0021262863 0.05434685 0.028383179 0.010739252
0.018174298 0.025167737 0.018811181 0.044486374 0.03726292 0.03383889 6.755213e-05 0.027535534
0.042991266 0.019427003 0.00404516 0.026985327 0.025867706 -0.0076555875 0.027764903 0.01769444
0.008426856 0.02302688 -0.007202309 -0.00013218314 0.00070040126 0.013035905 0.03137456 0.02317529
0.017259387 0.0039683543 0.010691342 0.01709248 0.020032475 -0.0064042807 0.0027506875 0.019241871
0.01819667 0.036146928 0.043911047 0.0033289753 0.018698355 0.015108487 0.024323436 0.021169227
0.02554557 0.010122659 0.024001438 0.007713337 0.003919566 0.040715236 0.0054688067 -0.0010696554
-0.002948443 -0.009708452 -0.0084596705 0.010928758 0.0026184309 -0.00077424414 0.006079221 -0.0052529606
-0.008260047 0.003734775 0.00434239 -0.011217178 -0.0020900052 0.0025967788 -0.009572222 0.0076385015
0.009533852 -0.015381328 -0.009134767 0.0028726838 -0.012253217 0.013105898 0.08113132 0.0076027974
0.01481561 -0.00089484575 0.02060498 0.07924506 -0.013894968 -0.0030488467 0.010360457 0.0022343711
0.02332472 0.011676662 -0.02689016 -0.01206189 -0.00081966165 0.019020168 -0.0022853648 -0.008644841
-0.0074814255 -0.010231792 0.024877628 -0.0063702594 0.004976922 0.01745851 -0.024258982 0.00305037
0.024344817 -0.014825851 0.017211916 0.003861702 -0.016976465 -0.014923332 -0.01057932 0.0005820675
0.0140898265 0.0094394125 -0.01134037 -0.001362777 0.028722117 -0.017185189 -0.0024114342 -0.013994903
0.02126106 -0.016852962 0.015002269 0.019967278 -0.005957282 0.037524108 0.06139847 0.002621478
0.01864193 -0.011451458 0.016135111 0.0513848 0.03555232 -0.008113269 -0.008784741 0.0078035127
-0.016257018 0.024564182 0.02216307 -0.00013739789 0.014275252 -0.0051165 -0.01223369 0.020400925
0.019503776 -0.013920958 -0.002032884 -0.008441278 -0.010381712 0.0093559185 0.026187604 -0.0009690234
0.013247363 0.018111898 -0.008432196 0.06619022 0.01051515 -0.0032525153 -0.038211733 -0.034337193
-6.5517524e-05 0.00057587546 -0.027208716 -0.030763775 -0.021616744 -0.026195113 -0.003957878 -0.01851065
-0.013375062 -0.010612019 -0.032932695 -0.025351157 -0.026631378 0.003961747 -0.0065976237 -0.02103244
-0.016378384 0.0015278555 -0.034851354 -0.008944275 0.00033104658 -0.031742368 -0.03481768 -0.008375594
-0.040385827 -0.02016933 -0.009677972 0.0057653333 -0.022665445 -0.025252413 -0.013060563 -0.0010378605
-0.040529814 -0.024752948 -0.039305985 -0.04311348 -0.04907832 -0.04972405 -0.038951933 -0.017032236
0.018858789 0.01559538 -0.005131203 -0.019844783 -0.012827087 0.010259179 0.0029575739 0.0073978906
0.003960541 -0.010790511 -0.034626372 0.00055576296 0.011914229 0.0122036785 0.01615513 -0.02857425
-0.015835432 -0.007486106 0.0016359619 0.006683352 -0.0018540734 0.003770785 -0.058687877 -0.0016023486
-0.015213705 -0.011026481 -0.02287064 -0.04896142 0.0006273165 -0.0003900675 -0.004372652 -0.013144261
